good_model_loss_0.049065.pth (torch_old, 111774 bytes, 42 tensors)

PreRes1_conv.Weight f4 [5, 1, 1, 13]
6.9127827 4.510674 4.0520363 14.82394 15.81041 6.113857 0.9710892 0.8657459
0.65912473 0.5264832 0.43998817 0.39795306 0.3700562 0.07307314 0.09398288 0.4444014
0.114284724 0.08559376 0.22484052 0.27200043 -2.130674 -0.44334227 -2.205826 -1.8569624
-3.4543488 0.056647476 -1.7300748 -1.66653 0.010790587 -0.72477174 -1.2277939 0.046374757
-0.7940469 -1.7667713 -3.884818 -7.3201327 -3.7222939 0.13371125 -0.23877323 0.028065046
0.011290454 -3.127574 -2.6725073 -3.0675154 -0.85021985 -1.1020538 -2.7410161 -3.090772
-2.7336595 -2.009016 -1.0072341 0.35947466 -1.9577738 -0.0049518854 -1.4541837 -1.2529223
-2.5975177 -1.9274341 -2.350249 -4.1882615 -2.718807 -0.48876098 0.31015944 0.28969604
-0.012358984
00000000: 8435 dd40 7157 9040 48aa 8140 dc2e 6d41
00000010: 70f7 7c41 b7a4 c340 4d99 783f 86a1 5d3f
00000020: 66bc 283f 9ac7 063f 2146 e13e 81c0 cb3e
00000030: 0278 bd3e 5fa7 953d 197a c03d 9588 e33e
00000040: 1c0e ea3d c84b af3d 983c 663e a443 8b3e
00000050: f65c 08c0 c2fd e2be 412c 0dc0 f2b0 edbf
00000060: 0d14 5dc0 2f07 683d 1773 ddbf db50 d5bf
00000070: 01cb 303c a48a 39bf 5a28 9dbf 75f3 3d3d
00000080: a846 4bbf 9025 e2bf dca0 78c0 873e eac0
00000090: 103a 6ec0 9aeb 083e f880 74be abe8 e53c
000000a0: 99fb 383c 2c2a 48c0 5c0a 2bc0 2c52 44c0
000000b0: 02a8 59bf 1910 8dbf cf6c 2fc0 35cf 45c0
000000c0: 47f4 2ec0 b893 00c0 0ced 80bf 100d b83e
000000d0: 5598 fabf 6d43 a2bb b122 babf c25f a0bf
000000e0: bb3d 26c0 29b6 f6bf 7b6a 16c0 3d06 86c0
000000f0: ef00 2ec0 e13e fabe 38cd 9e3e 0a53 943e
00000100: 567d 4abc

PreRes1_bn.weight f4 [5]
0.7368429 0.92784065 1.3862687 1.3885212 1.1439997
00000000: bca1 3c3f f786 6d3f 4171 b13f 10bb b13f
00000010: 956e 923f

PreRes1_bn.bias f4 [5]
0.18465638 -0.31572577 -0.33099127 -0.20303105 -0.20638892
00000000: 9016 3d3e cfa6 a1be b077 a9be 5fe7 4fbe
00000010: 9e57 53be

PreRes1_bn.running_mean f4 [5]
-54.87167 -12.05881 -24.59457 -24.10934 -20.795912
00000000: 977c 5bc2 e3f0 40c1 aec1 c4c1 eedf c0c1
00000010: 075e a6c1

PreRes1_bn.running_var f4 [5]
3.5077136 2.241319 4.2368674 3.7979834 3.2502987
00000000: 617e 6040 c571 0f40 6b94 8740 2912 7340
00000010: e504 5040

PreRes2_conv.Weight f4 [10, 5, 1, 9]
0.9225606 -0.400971 -1.3936263 -0.5200284 -0.68418396 0.23829105 -0.059463818 -1.8643061
0.027946455 -1.264872 0.45904887 0.1550111 0.45222774 1.3225448 -1.3948684 1.0651946
0.28641155 0.34200233 -2.1634777 -0.4079944 -1.9586205 -0.50006485 0.6588205 0.07767593
0.206352 -0.026847903 0.17647168 -1.56804 0.67881966 -0.86424184 0.25456706 0.27322212
1.4526883 0.65488535 0.08432648 0.25093174 -0.6009029 -2.930631 0.6445405 -1.1204712
1.835507 -2.4556336 -1.9487532 -0.26745385 0.9022936 1.2906802 0.79722667 -1.2471521
-1.522516 -2.2830684 -2.657039 -1.1758608 -2.2973979 -3.011289 -0.0013574099 0.40944535
-0.45928776 -0.89511114 0.12557508 0.24990474 -0.683242 0.10613128 -0.16929732 0.770834
1.792462 0.2715526 -1.2174863 0.31604397 -0.21713881 0.04269692 -0.1777124 -1.0669281
0.28467456 1.7911398 -0.1104233 0.11064412 -0.39818922 0.737104 -0.94272697 0.26766765
-0.2803371 -1.3284261 -1.128779 2.136737 0.05082985 0.9527094 0.23780899 -1.5476208
-2.2008207 -0.060804695 -1.8461818 -0.416275 -1.2457701 -1.1216921 -2.2047858 -2.7277815
-0.13376436 0.12811005 0.35314167 -2.172302 -1.4624211 -2.184605 -0.24774125 -0.3547168
0.06550739 -0.21328574 2.127808 1.2257154 -2.05338 0.38491488 -1.3101676 0.58404154
-1.1453245 0.12596434 -0.36473054 0.101226576 0.40836912 -2.9193096 -0.29914957 -0.19282925
-0.07423188 0.29091787 0.5038567 0.26175687 0.22399142 0.8997162 0.05125761 -0.082669996
1.2374339 -2.4876733 -1.2428763 -2.2259822 0.025383884 1.0331621 -0.8603613 -2.3893063
-2.41471 0.60659444 3.8181458 0.42891374 -0.26424906 -0.32797202 -1.6826363 -1.7393112
3.5707438 0.5170007 0.9426815 1.6705569 0.2242212 -1.2292186 0.16477028 0.26754627
0.14325236 1.5892699 2.0684872 1.4278541 0.5014352 1.0453491 -0.05701968 0.40246224
-0.75704765 -0.4373536 0.69412935 0.5527704 0.59703094 0.48776835 -0.6192474 1.1858921
-0.35073137 -0.03539903 -0.884594 1.6844271 -0.27427542 1.697829 0.19087516 0.32346395
0.38400328 -0.43840265 2.522396 1.658093 -1.1922965 -1.6462954 -1.1461996 -0.38355094
-0.8917188 0.29751936 -0.5671207 1.5266252 1.6439008 3.274294 0.08493053 0.82379395
0.65608704 3.1681566 0.3653419 1.8257356 -1.5242637e-05 -0.16868924 -0.095864184 0.37812498
0.2979483 0.08900232 1.6596094 0.31870624 0.91941035 0.12746128 1.1407396 -0.53360975
-1.926644 -0.041305553 -0.553979 -0.5342303 0.3613542 0.9639166 0.5090349 -0.8893856
-0.1917758 -1.0552496 0.18831529 0.53830564 1.1046716 -0.42219812 0.3514554 2.4591882
0.16500606 1.2862738 1.0182396 -0.5555081 -0.45132336 -0.09203582 -2.5051024 -2.523624
-1.1439254 0.95616156 -1.1326052 0.20674753 -0.21854398 0.16927435 -1.4635394 -0.6090206
-0.9199753 0.15201072 1.7448231 0.2537912 0.4826868 0.57090205 -1.2189058 1.0563017
-0.54301673 1.2922223 -0.621953 2.1138763 3.9967763 1.3818543 -0.46587828 2.3411071
00000000: ee2c 6c3f 124c cdbe 5962 b2bf 9520 05bf
00000010: ae26 2fbf 9202 743e 5590 73bd 95a1 eebf
00000020: f7ef e43c 53e7 a1bf 7408 eb3e 3bbb 1e3e
00000030: 658a e73e 2649 a93f 0c8b b2bf 4c58 883f
00000040: 89a4 923e ee1a af3e 6b76 0ac0 a4e4 d0be
00000050: 14b4 fabf 4004 00bf 76a8 283f 8f14 9f3d
00000060: f04d 533e 22f0 dbbc feb4 343e 89b5 c8bf
00000070: 20c7 2d3f f43e 5dbf 9d56 823e c5e3 8b3e
00000080: b1f1 b93f 91a6 273f 5db3 ac3d 207a 803e
00000090: c6d4 19bf 758f 3bc0 9b00 253f 9a6b 8fbf
000000a0: e5f1 ea3f 1a29 1dc0 bf70 f9bf b6ef 88be
000000b0: b7fc 663f 0235 a53f 0c17 4c3f aea2 9fbf
000000c0: cee1 c2bf cb1d 12c0 ed0c 2ac0 9b82 96bf
000000d0: 9108 13c0 f5b8 40c0 1eeb b1ba d2a2 d13e
000000e0: c427 ebbe 0126 65bf c196 003e 07e7 7f3e
000000f0: f3e8 2ebf 5b5b d93d 475c 2dbe 6155 453f
00000100: 656f e53f f108 8b3e 97d6 9bbf 84d0 a13e
00000110: a359 5ebe f7e2 2e3d 3dfa 35be 1a91 88bf
00000120: ddc0 913e 1244 e53f 9c25 e2bd 6299 e23d
00000130: 75df cbbe d9b2 3c3f 8e56 71bf bc0b 893e
00000140: 5888 8fbe de09 aabf d57b 90bf 4dc0 0840
00000150: f632 503d c3e4 733f 3384 733e 7018 c6bf
00000160: 3fda 0cc0 580e 79bd af4f ecbf ff21 d5be
00000170: 6575 9fbf 9b93 8fbf 361b 0dc0 f993 2ec0
00000180: 86f9 08be 482f 033e fcce b43e ff06 0bc0
00000190: 9d30 bbbf 91d0 0bc0 e2af 7dbe 719d b5be
000001a0: bd28 863d 9467 5abe 022e 0840 3ee4 9c3f
000001b0: 946a 03c0 9013 c53e 92b3 a7bf bf83 153f
000001c0: fe99 92bf ccfc 003e f6bd babe e14f cf3d
000001d0: c215 d13e f8d5 3ac0 222a 99be 0875 45be
000001e0: e206 98bd 30f3 943e c1fc 003f ff04 863e
000001f0: 025e 653e cd53 663f 80f3 513d e34e a9bd
00000200: 3c64 9e3f 0a36 1fc0 9216 9fbf 7e76 0ec0
00000210: ddf1 cf3c a83e 843f a340 5cbf 65ea 18c0
00000220: 9c8a 1ac0 c649 1b3f 805c 7440 959a db3e
00000230: a74b 87be f3eb a7be a060 d7bf c0a1 debf
00000240: 1187 6440 285a 043f 9353 713f cfd4 d53f
00000250: 3e9a 653e 0957 9dbf 8ab9 283e d3fb 883e
00000260: bfb0 123e 326d cb3f 1862 0440 ecc3 b63f
00000270: 0f5e 003f 00ce 853f 788d 69bd 880f ce3e
00000280: e0cd 41bf d0ec dfbe 76b2 313f 5c82 0d3f
00000290: 05d7 183f c6bc f93e ff86 1ebf 50cb 973f
000002a0: 1093 b3be 93fe 10bd c174 62bf 4f9b d73f
000002b0: d46d 8cbe 7652 d93f c774 433e 119d a53e
000002c0: 149c c43e 5076 e0be f06e 2140 643c d43f
000002d0: 2c9d 98bf cfb9 d2bf abb6 92bf ca60 c4be
000002e0: af47 64bf 7554 983e d22e 11bf 7468 c33f
000002f0: 576b d23f 088e 5140 0ff0 ad3d 29e4 523f
00000300: 52f5 273f 14c3 4a40 180e bb3e b4b1 e93f
00000310: a1ba 7fb7 dfbc 2cbe 7154 c4bd 9999 c13e
00000320: ae8c 983e d946 b63d 156e d43f 772d a33e
00000330: 7a5e 6b3f 3685 023e c103 923f a69a 08bf
00000340: 459c f6bf 0330 29bd 91d1 0dbf 51c3 08bf
00000350: 6b03 b93e 3dc3 763f 1c50 023f c6ae 63bf
00000360: e060 44be 6b12 87bf b9d5 403e 66ce 093f
00000370: e165 8d3f 5a2a d8be f6f1 b33e 5763 1d40
00000380: 59f7 283e 9fa4 a43f ad55 823f c735 0ebf
00000390: db13 e7be 477d bcbd 9953 20c0 0e83 21c0
000003a0: 266c 92bf 01c7 743f 35f9 90bf a0b5 533e
000003b0: fec9 5fbe 4156 2d3e 4255 bbbf c6e8 1bbf
000003c0: 8083 6bbf b3a8 1b3e 5d56 df3f ecf0 813e
000003d0: b922 f73e a326 123f 1b05 9cbf e534 873f
000003e0: 2503 0bbf 8a67 a53f 5038 1fbf c049 0740
000003f0: 2fcb 7f40 9ae0 b03f 9987 eebe b3d4 1540

PreRes2_bn.weight f4 [10]
0.8675534 0.5444556 0.7579892 1.4557041 0.73819387 1.3252974 1.5994378 0.39587137
0.77263224 1.1906779
00000000: fb17 5e3f 7161 0b3f 950b 423f 8354 ba3f
00000010: 46fa 3c3f 58a3 a93f 61ba cc3f a7af ca3e
00000020: 3acb 453f 2268 983f

PreRes2_bn.bias f4 [10]
0.077392146 0.4576102 -0.36810988 0.44792172 0.22901227 -0.0693258 0.38621843 0.4923725
0.18559717 0.44203168
00000000: c67f 9e3d e24b ea3e e678 bcbe ff55 e53e
00000010: 3182 6a3e affa 8dbd 6cbe c53e 4018 fc3e
00000020: 2f0d 3e3e fa51 e23e

PreRes2_bn.running_mean f4 [10]
-41.643005 -44.6989 -47.27928 -44.969692 -39.624424 -53.898434 -48.300713 -46.47176
-63.95653 -48.973476
00000000: 7092 26c2 accb 32c2 fc1d 3dc2 f7e0 33c2
00000010: 697f 1ec2 ff97 57c2 ee33 41c2 15e3 39c2
00000020: 7dd3 7fc2 d7e4 43c2

PreRes2_bn.running_var f4 [10]
15.4759245 9.568261 13.410663 13.0393505 11.1790085 37.324657 33.052277 2.7997923
4.809649 22.898134
00000000: 639d 7741 9917 1941 1392 5641 2ea1 5041
00000010: 38dd 3241 734c 1542 8835 0442 cc2f 3340
00000020: a5e8 9940 612f b741

R1.left.0.Weight f4 [10, 10, 1, 1]
0.21701464 0.17929062 0.44154832 0.93664086 2.5119843 -0.71051866 0.2639712 0.8321522
-0.29692256 -1.9292632 1.7372441 0.83190334 1.5385158 0.5297633 0.63487375 0.13614614
0.42405418 3.717576 0.8705373 3.2525728 0.09024305 0.88106954 -1.1443424 3.1851873
1.5777949 0.08853303 1.3921661 0.97973937 -0.26909283 0.10985675 0.5096587 0.63189936
-0.14606695 -2.0703416 -1.3535832 -0.45708555 -1.4088287 0.13701142 -1.1907827 1.0228759
-0.16879486 -1.3029673 -1.0628928 -0.05230116 0.21729612 -0.2897972 0.3904974 0.19791913
-1.9239522 -2.6552024 0.053336713 -0.3862357 1.3859843 -3.262388 -1.8183855 0.3355508
-1.6859843 -0.16144367 -2.4117122 1.1211833 0.8212891 2.017368 0.7053755 1.5783005
2.3512218 -0.85965264 0.35525525 -0.008674407 0.7084979 0.3924641 -0.18430701 0.4324226
0.14588109 -1.2573813 -1.2672905 0.5013902 0.4465868 -0.8738547 -0.54078174 -1.5256126
1.3801935 1.4313668 -0.37526116 -0.23982966 1.5277665 -1.1857758 0.41319832 0.46644074
1.6158676 1.7810069 0.19421925 1.1167605 -0.27758357 0.72769016 -0.7635808 0.7458321
-1.2425491 0.22398397 1.7645849 3.7457356
00000000: 1639 5e3e f697 373e 9f12 e23e b2c7 6f3f
00000010: 5ac4 2040 8de4 35bf 3c27 873e ed07 553f
00000020: 3c06 98be 19f2 f6bf 045e de3f 9ef7 543f
00000030: 16ee c43f 919e 073f 1687 223f e569 0b3e
00000040: a11d d93e c4ec 6d40 88db 5e3f 272a 5040
00000050: 59d1 b83d c68d 613f d079 92bf 1cda 4b40
00000060: 2ff5 c93f ce50 b53d 8032 b23f 33d0 7a3f
00000070: 89c6 89be 93fc e03d fe78 023f 28c4 213f
00000080: 9392 15be 7a80 04c0 3742 adbf 1e07 eabe
00000090: 8054 b4bf b94c 0c3e 916b 98bf 99ed 823f
000000a0: 8fd8 2cbe a2c7 a6bf df0c 88bf be39 56bd
000000b0: e082 5e3e 4c60 94be 46ef c73e 50ab 4a3e
000000c0: 1144 f6bf d6ee 29c0 9977 5a3d b0c0 c5be
000000d0: ef67 b13f f7ca 50c0 dbc0 e8bf 51cd ab3e
000000e0: 55ce d7bf 7d51 25be 7e59 1ac0 ef82 8f3f
000000f0: 0140 523f 8f1c 0140 7d93 343f c005 ca3f
00000100: 6b7a 1640 3212 5cbf 04e4 b53e 1a1f 0ebc
00000110: 1e60 353f 0ef1 c83e faba 3cbe 7f66 dd3e
00000120: da61 153e dff1 a0bf 9336 a2bf 1c5b 003f
00000130: 06a7 e43e f1b4 5fbf ac70 0abf 4647 c3bf
00000140: 2eaa b03f 0737 b73f 3b22 c0be e895 75be
00000150: da8d c33f 80c7 97bf bb8e d33e 52d1 ee3e
00000160: c0d4 ce3f 09f8 e33f 69e1 463e 02f2 8e3f
00000170: 6f1f 8ebe e749 3a3f 087a 43bf daee 3e3f
00000180: d90b 9fbf 0e5c 653e ebdd e13f 22ba 6f40

R1.left.1.weight f4 [10]
0.7502758 1.5936222 1.5029432 1.3324547 0.8784277 0.9041793 0.97517544 0.77415466
1.3892062 1.2698511
00000000: 1312 403f d0fb cb3f 7160 c03f e08d aa3f
00000010: a3e0 603f 4b78 673f 19a5 793f 002f 463f
00000020: 82d1 b13f 7b8a a23f

R1.left.1.bias f4 [10]
0.6693489 1.030026 0.13085383 0.70306 0.45344865 -0.2842433 0.12538327 -0.21361397
0.8053455 0.32134396
00000000: 735a 2b3f e4d7 833f 8cfe 053e bdfb 333f
00000010: 6c2a e83e 5688 91be 7964 003e 9fbd 5abe
00000020: 1f2b 4e3f 3287 a43e

R1.left.1.running_mean f4 [10]
-9.768365 -11.984826 -8.909253 -11.897146 -12.634278 -16.37823 -9.410738 -10.920994
-9.894164 -10.654367
00000000: 394b 1cc1 d9c1 3fc1 4d8c 0ec1 b65a 3ec1
00000010: 0126 4ac1 9d06 83c1 6292 16c1 64bc 2ec1
00000020: 7f4e 1ec1 4a78 2ac1

R1.left.1.running_var f4 [10]
1.1570843 8.799931 4.4919395 3.0718014 1.2255208 2.6359499 2.5146947 1.0147471
8.937255 3.9468927
00000000: 571b 943f 84cc 0c41 f8bd 8f40 6598 4440
00000010: dedd 9c3f 67b3 2840 c2f0 2040 3ce3 813f
00000020: fffe 0e41 e499 7c40

R1.left.3.Weight f4 [10, 10, 1, 1]
-1.9214759 3.1121237 -0.90122837 0.30504578 -2.5875416 0.6574505 -1.3524678 -1.0538708
0.21078576 0.45680413 2.0552838 -0.6632229 0.82012 1.3963664 3.4982278 1.462235
0.15079966 2.2000442 0.26708716 -0.2996458 -2.2251902 -0.18664247 0.31007895 0.098281294
1.4033526 -0.30756944 -1.2392148 -0.40055776 -0.050232053 -0.70876545 1.1894599 0.014509239
-2.5891008 2.0865548 4.6632047 2.6678896 -1.2357026 1.5508987 1.7579399 -1.29798
-1.9591492 0.44965285 -2.5556183 0.6091593 0.12931265 1.0900458 -1.9205352 0.63570905
0.5633603 2.367557 0.25359043 1.5132961 -2.5999675 4.5044293 3.0258029 1.7571363
-0.08705471 0.0036790168 0.6627426 1.7127082 2.017774 2.459405 0.011590761 5.914961
0.2933933 2.5620673 1.0058316 0.15109444 0.8976423 2.2670958 1.3390137 -0.6011697
1.8273978 -2.9075959 -0.10081242 0.41874045 2.8227718 -0.03202491 0.1254388 0.25563303
-0.7700228 0.025917582 -3.7849574 0.2612246 0.29361567 1.0299824 -1.8851327 0.14769617
1.0357378 -0.140507 3.539888 -0.43663847 -0.23104966 1.1492568 2.1321483 2.4630182
0.38764274 3.9258375 -2.0615196 -0.9850649
00000000: ecf2 f5bf 092d 4740 e7b6 66bf f62e 9c3e
00000010: 489a 25c0 ad4e 283f aa1d adbf 3de5 86bf
00000020: 39d8 573e 3be2 e93e c589 0340 fac8 29bf
00000030: 62f3 513f 22bc b23f f7e2 5f40 842a bb3f
00000040: 3a6b 1a3e 86cd 0c40 a6bf 883e 2d6b 99be
00000050: 8469 0ec0 341f 3fbe abc2 9e3e b447 c93d
00000060: 0fa1 b33f be79 9dbe 979e 9ebf e815 cdbe
00000070: 20c0 4dbd a771 35bf 3940 983f 29b8 6d3c
00000080: d4b3 25c0 1d8a 0540 f938 9540 b4be 2a40
00000090: 812b 9ebf d983 c63f 2d04 e13f 3524 a6bf
000000a0: 67c5 fabf e638 e63e 408f 23c0 ddf1 1b3f
000000b0: 896a 043e 9f86 8b3f 19d4 f5bf d4bd 223f
000000c0: 6138 103f 0e86 1740 9bd6 813e b0b3 c13f
000000d0: de65 26c0 4924 9040 c1a6 4140 d8e9 e03f
000000e0: bd49 b2bd a91b 713b 80a9 293f 063a db3f
000000f0: 3623 0140 e466 1d40 2de7 3d3c 5c47 bd40
00000100: a637 963e e9f8 2340 17bf 803f 80b8 1a3e
00000110: e3cb 653f 1918 1140 cd64 ab3f 42e6 19bf
00000120: 2ce8 e93f 0d16 3ac0 be76 cebd 2665 d63e
00000130: 4ba8 3440 8d2c 03bd 0773 003e 55e2 823e
00000140: 3720 45bf 1c51 d43c be3c 72c0 3bbf 853e
00000150: cb54 963e 77d6 833f 074c f1bf aa3d 173e
00000160: 0e93 843f 11e1 0fbe 868d 6240 148f dfbe
00000170: 4898 6cbe d91a 933f 1e75 0840 17a2 1d40
00000180: 1c79 c63e ec40 7b40 f0ef 03c0 372d 7cbf

R1.left.4.weight f4 [10]
0.55919915 1.0257589 1.3764386 0.9212666 1.0487099 1.015718 0.66168183 0.82797223
0.49590144 1.1550051
00000000: ad27 0f3f 114c 833f 242f b03f 21d8 6b3f
00000010: 203c 863f 0c03 823f fb63 293f fdf5 533f
00000020: cbe6 fd3e 35d7 933f

R1.left.4.bias f4 [10]
-0.010411941 -0.056148913 0.26393086 -0.638472 -0.5391994 -0.29497015 0.34483168 0.49917334
-0.62394744 -0.5287979
00000000: d996 2abc 67fc 65bd f221 873e e772 23bf
00000010: f908 0abf 5406 97be c78d b03e a693 ff3e
00000020: 05bb 1fbf 4d5f 07bf

R1.left.4.running_mean f4 [10]
-15.702912 -13.797891 -12.5961485 -19.262396 -15.106151 -15.47231 -14.865299 -13.405022
-13.995316 -19.4567
00000000: 213f 7bc1 29c4 5cc1 d389 49c1 6319 9ac1
00000010: cbb2 71c1 958e 77c1 44d8 6dc1 f87a 56c1
00000020: d0ec 5fc1 52a7 9bc1

R1.left.4.running_var f4 [10]
2.8229747 9.132139 17.15426 6.5552135 4.03744 11.45079 8.224291 20.20145
6.6407332 7.3878756
00000000: 9eab 3440 3e1d 1241 ed3b 8941 4fc4 d140
00000010: b532 8140 7036 3741 b296 0341 929c a141
00000020: e380 d440 7a69 ec40

O1_1_conv.Weight f4 [70, 140, 1, 1]
2.934869 -4.369473 -0.6193607 -3.2559178 -2.1471798 2.293607 1.3515267 0.40545827
0.6525956 1.8511997 2.405469 -0.32436746 -1.5382138 1.5477126 -1.3345371 0.20142202
-0.9240603 0.055341527 0.5901868 -1.751471 0.32428232 2.6225345 0.747965 -0.054862693
0.7947904 1.724158 -0.55591965 0.3421428 -0.9828539 -4.249473 -3.662469 -2.1669457
-0.03575939 -0.8470409 2.3904576 0.4526236 0.103434846 0.1887562 0.9994096 0.4506976
0.55651313 1.5323797 -2.965008 -1.210608 -0.15024763 -0.98767287 -2.5939574 0.75597566
1.2318275 0.1720248 0.1746849 3.4599319 1.1407132 0.83776146 1.1680189 0.40236497
0.5437599 -3.067116 0.17541206 -1.417371 0.23192234 1.1136442 2.293801 2.1720116
2.4359481 -1.3977331 0.7714368 -0.49092615 2.1914864 -0.005508059 0.33682013 0.87591845
-0.87016654 0.4825161 -1.1448714 1.4971058 -0.68858784 0.5478252 0.8088546 0.8106731
2.8306487 0.9505194 0.76421523 2.1780066 -0.84742934 -3.9550717 0.98773783 -0.5520339
1.6426704 -1.1661611 0.32056352 -1.3032749 0.53082365 -0.92050225 -0.3774617 0.19796534
0.91398615 -0.23765256 -0.33269644 -5.2932577 -3.459852 -0.26061282 -1.5918 -1.0783409
-1.654813 -1.8967322 -0.34682408 0.9673837 0.96208173 -1.9918524 0.18002222 2.6463401
2.018634 -0.41657254 -1.9361699 1.166719 0.15093563 -0.9128253 1.0634185 0.014391793
-1.2178719 -1.6849391 2.3379812 0.33878887 -0.5001436 1.5146427 -5.249583 -0.3383875
2.078023 -0.24753805 0.68481666 1.0722706 -0.8487243 -0.6526758 2.6588395 1.0890579
-0.022242807 -0.42431667 -2.6456213 -0.49317464 1.0656482 -2.1287143 0.35861707 0.27551422
1.1957834 1.6219388 0.3075553 1.6657819 -0.83200794 -0.624012 -0.16187887 1.5756011
-0.36999416 -0.6430124 -0.5622366 -0.18771969 -0.5193658 -0.030229373 0.46398813 1.2592906
-1.0944701 -0.9536668 -0.38442785 -0.23393492 -0.41972226 0.1391092 -0.12494541 -1.8554707
0.92202765 -1.8010842 -1.2035964 1.4287785 -0.31175342 1.9410992 2.8135002 -0.64820516
0.6046895 1.3514706 1.6466993 0.7406959 -0.293893 1.6235164 -1.2970735 -3.5880735
0.7989916 0.4626589 0.48219508 4.579056 2.1263957 1.624106 0.17951986 1.3253691
-1.0074507 0.95679206 1.7673975 0.48827156 2.3878703 0.7445628 -1.0646108 0.03370571
0.71561825 0.82547706 1.4183273 1.43664 -1.2994201 -1.3574638 1.4026378 1.1209241
-0.29794636 1.8374487 -0.16680434 2.0929615 -2.0312848 -0.9228415 1.8793722 0.269628
0.69854534 0.3942823 1.7465633 -0.091677524 1.5848615 0.6647208 -1.6648493 1.1152999
1.6146486 0.14992537 1.4589596 -0.75094783 1.5559518 1.1343132 0.4176778 0.6355973
0.5039502 -1.5798914 2.1113932 1.271753 -0.1899196 0.0006905347 3.5593603 -1.8242778
3.259871 1.909087 1.6517383 -2.400235 -0.22934209 1.1438062 -0.7371826 -0.88046217
-2.3706486 -1.6541001 -0.40516362 0.31828222 4.772934 1.5538969 0.82060176 0.43135777
00000000: e5d4 3b40 b9d2 8bc0 6c8e 1ebf f560 50c0
00000010: 656b 09c0 75ca 1240 d4fe ac3f 3a98 cf3e
00000020: 8110 273f 1df4 ec3f 34f3 1940 7e13 a6be
00000030: 31e4 c4bf 721b c63f 1dd2 aabf 9341 4e3e
00000040: 378f 6cbf ccad 623d 7b16 173f 3430 e0bf
00000050: 5508 a63e 9bd7 2740 a27a 3f3f b4b7 60bd
00000060: 6277 4b3f 36b1 dc3f c050 0ebf 572d af3e
00000070: 509c 7bbf affb 87c0 e465 6ac0 3daf 0ac0
00000080: 7078 12bd acd7 58bf 42fd 1840 48be e73e
00000090: a6d5 d33d 4e49 413e 4fd9 7f3f d6c1 e63e
000000a0: a577 0e3f 0525 c43f b1c2 3dc0 34f5 9abf
000000b0: 84da 19be 21d8 7cbf 6603 26c0 9f87 413f
000000c0: 86ac 9d3f 4527 303e 99e0 323e 866f 5d40
000000d0: e402 923f 8977 563f a581 953f c802 ce3e
000000e0: d933 0b3f a14b 44c0 389f 333e 6a6c b5bf
000000f0: 0d7d 6d3e e58b 8e3f a3cd 1240 3d02 0b40
00000100: 93e6 1b40 ebe8 b2bf e27c 453f ac5a fbbe
00000110: 5041 0c40 f37c b4bb b073 ac3e 313c 603f
00000120: 3cc3 5ebf 5a0c f73e 258b 92bf 2aa1 bf3f
00000130: 4b47 30bf 463e 0c3f 1811 4f3f 4688 4f3f
00000140: 5929 3540 3d55 733f 9ca3 433f 7664 0b40
00000150: 21f1 58bf e51f 7dc0 63dc 7c3f 1852 0dbf
00000160: 0643 d23f c444 95bf e720 a43e b6d1 a6bf
00000170: 0fe4 073f 09a6 6bbf a942 c1be 6db7 4a3e
00000180: fffa 693f 315b 73be 3057 aabe 5e62 a9c0
00000190: 376e 5dc0 0b6f 85be 1ac0 cbbf 1307 8abf
000001a0: ead0 d3bf 1fc8 f2bf ed92 b1be 75a6 773f
000001b0: fd4a 763f 05f5 febf bf57 383e a35d 2940
000001c0: 4d31 0140 ff48 d5be 6ad4 f7bf 0c57 953f
000001d0: df8e 1a3e ebae 69bf 191e 883f 8ecb 6b3c
000001e0: 3ae3 9bbf 16ac d7bf 7ca1 1540 bc75 ad3e
000001f0: 6909 00bf d0df c13f 95fc a7c0 2041 adbe
00000200: 54fe 0440 9d7a 7dbe 2550 2f3f 2a40 893f
00000210: ff45 59bf c315 27bf 6d2a 2a40 4066 8b3f
00000220: 8c36 b6bc 0940 d9be dc51 29c0 6381 fcbe
00000230: 2967 883f db3c 08c0 a89c b73e 3310 8d3e
00000240: 6e0f 993f b19b cf3f e377 9d3e 5738 d53f
00000250: 79fe 54bf 40bf 1fbf 93c3 25be 4cad c93f
00000260: e06f bdbe 769c 24bf bdee 0fbf 9739 40be
00000270: 28f5 04bf 97a3 f7bc da8f ed3e 6f30 a13f
00000280: 9917 8cbf 8223 74bf bad3 c4be a38c 6fbe
00000290: d6e5 d6be a472 0e3e 61e3 ffbd 1080 edbf
000002a0: 010a 6c3f ed89 e6bf 720f 9abf 37e2 b63f
000002b0: 259e 9fbe f075 f83f 6310 3440 c6f0 25bf
000002c0: eecc 1a3f fdfc ac3f 0bc7 d23f 3f9e 3d3f
000002d0: 2579 96be 63cf cf3f 8106 a6bf ffa2 65c0
000002e0: b78a 4c3f a1e1 ec3e 46e2 f63e a087 9240
000002f0: de16 0840 b5e2 cf3f 0ed4 373e b2a5 a93f
00000300: 25f4 80bf 53f0 743f 153a e23f bbfe f93e
00000310: ded2 1840 ab9b 3e3f 2b45 88bf 000f 0a3d
00000320: c232 373f 7752 533f c08b b53f d2e3 b73f
00000330: 6653 a6bf 60c1 adbf a389 b33f 717a 8f3f
00000340: 6d8c 98be 8531 eb3f c2ce 2abe 15f3 0540
00000350: 9200 02c0 573f 6cbf 458f f03f ae0c 8a3e
00000360: ded3 323f 5fdf c93e 638f df3f 6dc1 bbbd
00000370: bedc ca3f 242b 2a3f c819 d5bf 26c2 8e3f
00000380: ceac ce3f 0986 193e 30bf ba3f 1e3e 40bf
00000390: 6e29 c73f 2d31 913f ddd9 d53e 81b6 223f
000003a0: e102 013f e239 cabf 1121 0740 cdc8 a23f
000003b0: 497a 42be 0005 353a 8fcc 6340 ef81 e9bf
000003c0: baa1 5040 f65c f43f 296c d33f 739d 19c0
000003d0: a7d8 6abe 3e68 923f 00b8 3cbf f865 61bf
000003e0: b5b8 17c0 8db9 d3bf 9b71 cfbe e3f5 a23e
000003f0: e0bb 9840 18e6 c63f f512 523f edda dc3e

O1_1_bn.weight f4 [70]
0.23176217 0.43064293 0.67382914 0.12919529 0.24044512 0.53430027 0.9498706 0.5062361
0.6071228 0.1418483 0.6891103 0.5640069 0.31917322 0.7588284 0.39958185 0.5928278
0.9040601 0.9819478 0.71577346 0.80429476 0.6310324 0.7751499 0.7936635 0.60254
0.88479364 0.20029745 1.1020625 0.54595524 0.30990332 0.33922544 0.6342565 0.9359775
0.26821682 0.12599985 0.6128687 0.70459396 0.19662294 1.3692085 1.2529099 0.75091624
0.41527742 1.0084721 0.15118104 1.3542985 0.9388105 1.187457 0.22789557 0.31189147
0.7859322 0.7225464 0.52023226 0.8928758 0.76509315 0.9545917 1.0870258 1.0160373
0.17267305 0.49976605 0.5861292 0.6836902 0.16422968 0.48328012 0.26153836 0.5860693
0.4288889 0.953147 1.1734616 1.4036171 0.18063003 1.2393117
00000000: 1053 6d3e 3b7d dc3e 1180 2c3f c54b 043e
00000010: 3f37 763e e7c7 083f b82a 733f b098 013f
00000020: 666c 1b3f ae40 113e 8869 303f c262 103f
00000030: ac6a a33e 9442 423f fe95 cc3e 90c3 173f
00000040: 7c70 673f ee60 7b3f ee3c 373f 43e6 4d3f
00000050: 578b 213f 3970 463f 882d 4b3f 1040 1a3f
00000060: d681 623f c61a 4d3e 6210 8d3f b9c3 0b3f
00000070: a6ab 9e3e f5ae ad3e a25e 223f 399c 6f3f
00000080: b753 893e 1b06 013e f7e4 1c3f 4560 343f
00000090: 8657 493e 3942 af3f 5a5f a03f 0c3c 403f
000000a0: 3e9f d43e 9d15 813f 34cf 1a3e a759 ad3f
000000b0: e355 703f 97fe 973f 755d 693e 3db0 9f3e
000000c0: da32 493f cdf8 383f f12d 053f 8293 643f
000000d0: 25dd 433f 1f60 743f a923 8b3f 830d 823f
000000e0: 34d1 303e 56e1 ff3e 900c 163f 5206 2f3f
000000f0: d32b 283e 7e70 f73e 5be8 853e a308 163f
00000100: 5397 db3e 7101 743f fd33 963f baa9 b33f
00000110: 14f7 383e c4a1 9e3f

O1_1_bn.bias f4 [70]
1.305719 0.96840996 -0.15672754 1.1884744 1.5357126 0.6413005 -0.3666954 -0.10211455
-0.19235763 -0.26641598 -0.024114804 0.24083118 0.0012039583 -0.11753322 1.9930676 -0.5577852
-0.43948132 -0.18649966 -0.39532414 0.40357012 -0.20916659 -0.45499614 0.5140276 0.8256238
0.006491454 1.2693604 0.091776766 0.20869623 0.06996137 0.9640528 -0.23194464 -0.23646195
0.59757274 -0.46912923 -0.044691734 -0.008997686 0.7828545 -0.17103039 0.42700166 0.21315353
1.0899771 -0.39722356 1.4790152 -0.11989387 0.41316304 -0.04598827 0.28131896 0.5429762
-0.03606341 0.15831283 1.5551198 -0.2647612 -0.70665866 0.4974402 -0.099604435 0.85599947
-0.42112598 1.3738128 -0.81769335 1.0105195 1.1610764 -0.5927746 0.3877631 0.026865182
-0.3152867 0.724598 -0.03836659 0.29486433 1.2152555 0.32101747
00000000: cd21 a73f b7e9 773f 2f7d 20be ee1f 983f
00000010: 3b92 c43f 452c 243f 80bf bbbe 6f21 d1bd
00000020: 66f9 44be ad67 88be 698c c5bc 739c 763e
00000030: 23ce 9d3a 42b5 f0bd d71c ff3f 03cb 0ebf
00000040: b203 e1be c4f9 3ebe ed67 cabe bea0 ce3e
00000050: c42f 56be 41f5 e8be 5097 033f 155c 533f
00000060: 43b6 d43b 677a a23f 75f5 bb3d 77b4 553e
00000070: e847 8f3d 2acc 763f e582 6dbe 1523 72be
00000080: 87fa 183f b531 f0be ae0e 37bd 086b 13bc
00000090: 2769 483f 9722 2fbe f69f da3e eb44 5a3e
000000a0: 5f84 8b3f e360 cbbe 5f50 bd3f eb8a f5bd
000000b0: 1b8a d33e 325e 3cbd 0a09 903e 7d00 0b3f
000000c0: 3ab7 13bd c21c 223e 2a0e c73f c88e 87be
000000d0: 95e7 34bf 7bb0 fe3e 69fd cbbd c822 5b3f
000000e0: d39d d7be 19d9 af3f 5a54 51bf b458 813f
000000f0: 279e 943f 14c0 17bf e388 c63e 5f14 dc3c
00000100: 426d a1be 417f 393f 4926 1dbd 75f8 963e
00000110: 7e8d 9b3f 675c a43e

O1_1_bn.running_mean f4 [70]
-201.95148 -175.11679 -184.25414 -176.36865 -192.77713 -178.89912 -171.5455 -179.38522
-171.78186 -162.2466 -168.14073 -164.46077 -179.16101 -169.64474 -188.61003 -169.99533
-162.04074 -160.85655 -185.1172 -163.80083 -168.19597 -163.7138 -168.72926 -171.78624
-175.81213 -184.44402 -174.89688 -156.34686 -175.39879 -177.66508 -151.28566 -173.32289
-182.19775 -154.59677 -145.31361 -168.4879 -156.67604 -157.6968 -170.89662 -156.78043
-183.42993 -168.78703 -176.38995 -177.11604 -180.57927 -156.78242 -181.20686 -191.76529
-175.24554 -167.87814 -179.82393 -180.42638 -176.45486 -166.61949 -167.8059 -176.96758
-145.14178 -174.60043 -174.40663 -172.99689 -177.62715 -178.84222 -171.7357 -159.68181
-191.45801 -179.22714 -162.45753 -173.67548 -179.85066 -156.9289
00000000: 94f3 49c3 e61d 2fc3 0f41 38c3 605e 30c3
00000010: f2c6 40c3 2de6 32c3 a68b 2bc3 9e62 33c3
00000020: 28c8 2bc3 213f 22c3 0724 28c3 f575 24c3
00000030: 3829 33c3 0ea5 29c3 2b9c 3cc3 cefe 29c3
00000040: 6e0a 22c3 47db 20c3 011e 39c3 03cd 23c3
00000050: 2b32 28c3 bcb6 23c3 b1ba 28c3 47c9 2bc3
00000060: e8cf 2fc3 ab71 38c3 9ae5 2ec3 cc58 1cc3
00000070: 1766 2fc3 43aa 31c3 2149 17c3 a952 2dc3
00000080: a032 36c3 c698 1ac3 4950 11c3 e77c 28c3
00000090: 11ad 1cc3 61b2 1dc3 89e5 2ac3 cac7 1cc3
000000a0: 106e 37c3 7bc9 28c3 d463 30c3 b51d 31c3
000000b0: 4b94 34c3 4dc8 1cc3 f534 35c3 eac3 3fc3
000000c0: dc3e 2fc3 cee0 27c3 edd2 33c3 276d 34c3
000000d0: 7274 30c3 979e 26c3 4fce 27c3 b3f7 30c3
000000e0: 4c24 11c3 b699 2ec3 1968 2ec3 34ff 2cc3
000000f0: 8da0 31c3 9cd7 32c3 57bc 2bc3 8bae 1fc3
00000100: 4075 3fc3 263a 33c3 2175 22c3 ecac 2dc3
00000110: c5d9 33c3 cced 1cc3

O1_1_bn.running_var f4 [70]
57.670578 16.018042 62.883675 122.219315 111.766464 31.605501 77.5339 59.940723
92.404 70.876495 172.29744 139.1803 12.022921 125.067474 72.64691 33.007114
10.232559 80.634056 68.95129 85.445244 12.485129 15.107596 180.10304 29.02821
197.65096 134.53879 116.145905 13.449973 117.1046 119.24264 36.09427 129.82462
305.7264 46.468918 148.1173 27.62371 76.8155 46.636726 97.47865 99.11422
61.112595 7.4048634 61.322895 60.378696 123.45069 34.63384 123.79875 36.671448
41.927338 39.844543 177.33728 34.43483 13.923564 90.85841 35.663437 79.19681
89.895164 184.47563 13.809187 100.5569 35.93784 53.232647 173.21733 108.604904
89.729836 93.510956 69.235725 50.569313 39.789196 46.662685
00000000: acae 6642 f324 8041 e288 7b42 4a70 f442
00000010: 6e88 df42 11d8 fc41 5b11 9b42 4dc3 6f42
00000020: d9ce b842 c4c0 8d42 254c 2c43 282e 0b43
00000030: e25d 4041 8c22 fa42 384b 9142 4907 0442
00000040: 90b8 2341 a344 a142 0fe7 8942 f7e3 aa42
00000050: 17c3 4741 b7b8 7141 611a 3443 c639 e841
00000060: a5a6 4543 ee89 0643 b44a e842 1733 5741
00000070: 8e35 ea42 3b7c ee42 8860 1042 1ad3 0143
00000080: fbdc 9843 2ce0 3942 071e 1443 5cfd dc41
00000090: 89a1 9942 028c 3a42 12f5 c242 7b3a c642
000000a0: 4c73 7442 a4f4 ec40 a54a 7542 c983 7142
000000b0: c1e6 f642 0d89 0a42 f698 f742 90af 1242
000000c0: 98b5 2742 d060 1f42 5856 3143 44bd 0942
000000d0: ebc6 5e41 82b7 b542 5ca7 0e42 c464 9e42
000000e0: 53ca b342 c379 3843 6ef2 5c41 221d c942
000000f0: 59c0 0f42 3bee 5442 a337 2d43 b635 d942
00000100: ad75 b342 9c05 bb42 b178 8a42 fa46 4a42
00000110: 2328 1f42 97a6 3a42

O1_2_conv.Weight f4 [30, 70, 1, 1]
0.48576435 -0.24495822 3.1925325 -0.3688508 -2.01171 1.8948673 -0.3115258 -3.309076
0.22409941 -0.13899459 -1.1953615 -0.06496532 1.0845197 -0.61738396 1.0152663 -0.13177162
1.1066183 -0.6443131 -0.026093308 0.20484498 -1.9886104 -0.22848621 -0.45588464 2.592557
-0.8829088 -0.4260011 2.1664877 1.7631142 -1.1502694 -1.2583572 0.15215413 -1.0880634
0.5317181 -0.8333932 -1.8209935 1.1905416 0.81362784 -0.68619645 -0.9930499 0.82240015
-0.80758035 0.42534697 0.75697863 -0.5435727 -0.62119085 0.44832847 -0.643807 -1.1741824
-1.7088017 0.4324178 -0.75429934 1.6257988 1.0483938 -0.1642337 0.7864244 -2.2520807
0.2569752 -1.3015001 1.1845008 -1.1279008 -2.850545 2.79951 -1.743201 -0.6350058
-0.3607933 2.6608229 -1.2199739 -1.4085153 1.0153632 -0.81388736 1.3525258 0.5289486
-0.3915201 0.88351506 -0.17676733 -0.9178259 -1.0636666 -1.4679723 -0.9349114 0.6355864
-0.46589187 -0.546959 -0.1775285 -0.95769656 -0.36450538 0.41730663 -0.9454349 -0.6366716
-0.68193126 -0.586097 -0.5854664 0.06539096 0.2277814 1.1154151 -0.8172055 1.7954587
-0.2048529 1.4713013 0.16648722 0.8941202 -1.7261736 -1.7837961 0.4900661 -1.4543401
-0.5604611 -1.6330243 0.09971474 -3.125019 0.35964057 -0.15018664 -0.14771199 0.86406535
0.11500771 0.60085404 -0.620028 1.5969564 0.78939205 0.565533 -1.3178409 -1.435084
-0.26790324 -2.5749905 -2.808038 -0.7277347 3.2060144 0.7308258 1.1974969 -1.4926038
0.72008806 0.8330061 1.9389632 -0.4920063 -2.682584 -1.864374 -0.06622898 -0.21749352
0.050745197 0.63671756 3.5977974 0.10636287 -1.5201082 1.252767 -0.28913423 -0.6603053
0.06609461 -0.14658476 0.0763289 0.2229143 -1.0404466 1.5998088 0.41858163 0.10983673
2.4198725 0.68154395 1.0645392 -0.59781694 0.89380836 2.0565875 0.25171214 -0.0881214
-0.14007297 -0.63106334 0.49836186 -0.25055143 -0.1865624 -0.5075969 0.18342413 -0.8153121
0.94346446 1.5431842 -0.20455301 -2.0676792 0.5571605 0.51427495 0.49878561 -1.8966031
-1.3117741 -0.70047706 2.02962 -0.06612205 1.2214339 0.29332024 -1.0702943 1.6369628
-0.7257306 -1.1288544 1.148679 -1.4726756 -0.42163724 -3.0985548 0.71212935 0.35879374
0.5169649 -1.0469948 0.6063013 -0.4230156 -0.29247212 1.3648173 -0.27879894 -1.6144974
-0.44534987 -0.006150124 0.65893984 0.44507432 0.3389179 -1.6862308 1.2075673 0.23911054
-0.042593583 -2.5577612 -1.0401025 0.25749606 -0.84649205 1.2916048 0.060224064 1.8274204
1.4403979 -2.0404422 0.06271478 -0.8984445 -1.7139602 -0.7162754 2.481159 -0.20231275
0.17971338 0.94984984 -1.3569822 -0.99408954 -0.18546006 -0.18969098 -1.5947286 2.3649585
-0.949272 -0.4793099 -2.1391191 2.1636403 -0.7541338 -3.657919 -0.82980376 -1.8660498
0.13748343 -1.579915 -0.7559649 -0.32457286 -1.2902308 -1.3310674 -0.064539276 -1.6125271
-1.7455856 -1.881516 -0.043211974 -1.2129253 0.26267436 -2.0390348 0.011842459 0.31629178
00000000: 1bb6 f83e 54d6 7abe 7452 4c40 03da bcbe
00000010: dbbf 00c0 038b f23f 4f80 9fbe e7c7 53c0
00000020: 517a 653e 9954 0ebe 9b01 99bf 8a0c 85bd
00000030: 8bd1 8a3f e00c 1ebf 3ff4 813f 24ef 06be
00000040: aba5 8d3f b4f1 24bf a2c1 d5bc e2c2 513e
00000050: c98a febf 4af8 69be b669 e9be 74ec 2540
00000060: 5006 62bf d11c dabe bca7 0a40 baad e13f
00000070: 073c 93bf d911 a1bf 4bce 1b3e a945 8bbf
00000080: ad1e 083f 4259 55bf 5116 e9bf ab63 983f
00000090: ea49 503f 92aa 2fbf 8538 7ebf d188 523f
000000a0: 96bd 4ebf 14c7 d93e 5ac9 413f 9527 0bbf
000000b0: 5d06 1fbf 4f8b e53e 89d0 24bf 9c4b 96bf
000000c0: 04ba dabf de65 dd3e c319 41bf 2d1a d03f
000000d0: c531 863f e12c 28be 1c53 493f 1722 10c0
000000e0: 4192 833e 8e97 a6bf b99d 973f 0e5f 90bf
000000f0: 546f 36c0 2c2b 3340 3621 dfbf bd8f 22bf
00000100: e6b9 b8be ec4a 2a40 1b28 9cbf 3b4a b4bf
00000110: 6cf7 813f ec5a 50bf 911f ad3f 2d69 073f
00000120: 5375 c8be 0b2e 623f 7f02 35be a3f6 6abf
00000130: 3a26 88bf 84e6 bbbf 5a56 6fbf cab5 223f
00000140: 6189 eebe 8105 0cbf 08ca 35be 9a2b 75bf
00000150: 73a0 babe 37a9 d53e 0608 72bf e9fc 22bf
00000160: 0c93 2ebf 740a 16bf 20e1 15bf b2eb 853d
00000170: 873f 693e ecc5 8e3f 6134 51bf 97d1 e53f
00000180: f5c4 51be 9a53 bc3f a07b 2a3e 10e5 643f
00000190: 42f3 dcbf 6e53 e4bf f2e9 fa3e d127 babf
000001a0: 617a 0fbf f106 d1bf 3e37 cc3d 5000 48c0
000001b0: cf22 b83e 87ca 19be d041 17be 6333 5d3f
000001c0: 2a89 eb3d 92d1 193f 28ba 1ebf 1169 cc3f
000001d0: 9915 4a3f c5c6 103f 03af a8bf d5b0 b7bf
000001e0: 9d2a 89be a5cc 24c0 e5b6 33c0 d24c 3abf
000001f0: 572f 4d40 6617 3b3f 9447 993f a40d bfbf
00000200: b157 383f e33f 553f f22f f83f 40e8 fbbe
00000210: 75af 2bc0 cfa3 eebf 0fa3 87bd 9fb6 5ebe
00000220: 32da 4f3d ecff 223f 5042 6640 c7d4 d93d
00000230: e892 c2bf ab5a a03f 6709 94be c509 29bf
00000240: 9c5c 873d 511a 16be 5452 9c3d a543 643e
00000250: 5b2d 85bf 89c6 cc3f 5550 d63e 14f2 e03d
00000260: 31df 1a40 aa79 2e3f d242 883f 880a 19bf
00000270: a0d0 643f 219f 0340 6ae0 803e fe78 b4bd
00000280: 4a6f 0fbe 5e8d 21bf 4929 ff3e 4748 80be
00000290: 370a 3fbe dff1 01bf 89d3 3b3e 4bb8 50bf
000002a0: e386 713f 0f87 c53f 5876 51be db54 04c0
000002b0: 12a2 0e3f 86a7 033f d460 ff3e e4c3 f2bf
000002c0: 37e8 a7bf 7752 33bf 4be5 0140 ff6a 87bd
000002d0: f257 9c3f 122e 963e 67ff 88bf ff87 d13f
000002e0: 7bc9 39bf 4d7e 90bf ea07 933f a280 bcbf
000002f0: d6e0 d7be b94e 46c0 1c4e 363f d0b3 b73e
00000300: d057 043f ed03 86bf 9036 1b3f 8095 d8be
00000310: e8be 95be 55b2 ae3f bcbe 8ebe daa7 cebf
00000320: e604 e4be fb86 c9bb 48b0 283f c8e0 e33e
00000330: a686 ad3e 69d6 d7bf 9191 9a3f 65d9 743e
00000340: 9c76 2ebd 5cb2 23c0 1422 85bf 86d6 833e
00000350: b4b3 58bf 4e53 a53f 82ad 763d e9e8 e93f
00000360: f55e b83f 9b96 02c0 9b70 803d 7500 66bf
00000370: 0c63 dbbf d35d 37bf 4fcb 1e40 132b 4fbe
00000380: c906 383e 5c29 733f 98b1 adbf a77c 7ebf
00000390: 3ee9 3dbe 5a3e 42be 1120 ccbf 7b5b 1740
000003a0: 7d03 73bf 1b68 f5be 54e7 08c0 1579 0a40
000003b0: ea0e 41bf 581b 6ac0 056e 54bf b8da eebf
000003c0: 75c8 0c3e a83a cabf ea86 41bf 6a2e a6be
000003d0: 4826 a5bf 6b60 aabf 2b2d 84bd 4a67 cebf
000003e0: 596f dfbf 84d5 f0bf 0aff 30bd 2341 9bbf
000003f0: 417d 863e 8c7f 02c0 e006 423c fff0 a13e

O1_2_bn.weight f4 [30]
1.6010342 0.3961397 0.8018241 1.3539442 0.62251157 1.1153798 1.1096346 0.5979268
0.7328797 0.54794323 0.97342885 1.0982282 1.9561332 0.7551034 1.2001722 0.76509404
0.78602827 1.3989767 0.7576312 0.8853467 0.8873341 1.4710133 1.5445418 0.88625973
1.5245463 0.6901902 0.87097675 0.43675908 1.4859623 0.6880634
00000000: b0ee cc3f d3d2 ca3e 5844 4d3f 0b4e ad3f
00000010: eb5c 1f3f c4c4 8e3f 8208 8e3f bb11 193f
00000020: 019e 3b3f 0246 0c3f a232 793f be92 8c3f
00000030: 9362 fa3f 754e 413f 3e9f 993f 34dd 433f
00000040: 2639 493f ab11 b33f 1ef4 413f 15a6 623f
00000050: 5428 633f 2a4a bc3f 8cb3 c53f ebe1 623f
00000060: 5524 c33f 4eb0 303f 55f8 5e3f e39e df3e
00000070: 0334 be3f ec24 303f

O1_2_bn.bias f4 [30]
0.46267518 -0.18191239 -0.51698405 0.3988142 -0.09947352 0.88721484 0.027052458 -0.6285035
-0.20651157 -0.41874978 -1.3118805 1.4065661 0.97391874 1.8762572 -1.3616302 -0.18402058
1.6162043 0.37062293 -0.0070666024 -0.018172543 -0.4522619 0.371397 0.09370353 0.0065336926
0.83204466 -0.44448468 -0.48183134 -0.72239035 -1.206198 -0.5538716
00000000: c3e3 ec3e 3e47 3abe 1159 04bf 6031 cc3e
00000010: c6b8 cbbd 8320 633f 1e9d dd3c 9be5 20bf
00000020: c577 53be 5f66 d6be b3eb a7bf 5c0a b43f
00000030: bd52 793f 3229 f03f e649 aebf e46f 3cbe
00000040: c8df ce3f 4ac2 bd3e f58e e7bb 96de 94bc
00000050: df8e e7be bf27 be3e a3e7 bf3d 9618 d63b
00000060: e100 553f 7f93 e3be 99b2 f6be 93ee 38bf
00000070: b264 9abf 87ca 0dbf

O1_2_bn.running_mean f4 [30]
-91.93898 -79.93031 -73.64658 -98.81735 -98.85969 -95.15287 -79.8985 -83.93247
-90.952934 -78.02951 -87.710945 -85.3368 -81.38621 -74.70671 -101.38491 -98.53424
-76.07201 -95.687546 -80.732185 -82.301865 -100.402016 -83.930855 -108.33812 -92.82015
-106.88235 -89.50006 -86.29667 -70.51273 -99.29148 -72.81442
00000000: c2e0 b7c2 52dc 9fc2 0d4b 93c2 7ca2 c5c2
00000010: 29b8 c5c2 454e bec2 08cc 9fc2 6ddd a7c2
00000020: e7e7 b5c2 1c0f 9cc2 016c afc2 71ac aac2
00000030: bdc5 a2c2 d669 95c2 13c5 cac2 8811 c5c2
00000040: de24 98c2 0660 bfc2 e176 a1c2 8e9a a4c2
00000050: d5cd c8c2 99dc a7c2 1ead d8c2 eba3 b9c2
00000060: c3c3 d5c2 0800 b3c2 e597 acc2 8506 8dc2
00000070: 3d95 c6c2 fca0 91c2

O1_2_bn.running_var f4 [30]
264.74722 140.72926 59.55521 210.7343 195.91138 229.72214 140.00412 72.306625
176.7856 32.788036 36.630394 131.32692 55.868927 35.71187 42.21645 165.25755
52.129436 192.60078 107.74836 176.02019 180.17151 251.46388 216.5113 227.45573
226.50955 142.37155 23.232616 69.67082 37.17321 115.28169
00000000: a55f 8443 b1ba 0c43 8938 6e42 fbbb 5243
00000010: 50e9 4343 deb8 6543 0e01 0c43 fe9c 9042
00000020: 1dc9 3043 f326 0342 8685 1242 b153 0343
00000030: c879 5f42 f4d8 0e42 a5dd 2842 ef41 2543
00000040: 8b84 5042 cd99 4043 297f d742 2b05 3043
00000050: e82b 3443 c176 7b43 e582 5843 ab74 6343
00000060: 7282 6243 1e5f 0e43 66dc b941 7657 8b42
00000070: 5eb1 1442 3a90 e642

O1_3_conv.Weight f4 [1, 30, 1, 1]
-1.4435585 0.03215083 0.49059424 -0.38347992 0.40877116 -1.5035086 0.99329054 1.1316528
1.012367 2.4964404 0.21522704 -1.6969608 -3.1532388 -1.469037 0.81056345 0.58979315
-1.9486271 -0.55969465 0.51893187 0.6599103 0.6195949 -1.3117325 -1.6138557 -0.035739362
-0.650584 0.1112076 2.2069635 1.2549046 2.2240226 1.6209124
00000000: 86c6 b8bf 97b0 033d 2b2f fb3e 7b57 c4be
00000010: 744a d13e f872 c0bf 4a48 7e3f 00da 903f
00000020: 3e95 813f aec5 1f40 7a64 5c3e 0336 d9bf
00000030: aace 49c0 6809 bcbf 1681 4f3f affc 163f
00000040: 9d6c f9bf 2648 0fbf b8d8 043f e2ef 283f
00000050: c59d 1e3f dae6 a7bf d392 cebf 7063 12bd
00000060: ac8c 26bf cfc0 e33d e43e 0d40 b7a0 a03f
00000070: 6356 0e40 0f7a cf3f

O2.0.Weight f4 [70, 140, 1, 1]
0.31962758 0.83106446 0.821099 0.7422365 2.6628292 2.032865 1.8337814 -0.5175785
0.3831671 0.75659317 0.7354018 -1.7977618 -0.42681724 -2.1602764 1.4289474 0.9858343
0.27900097 0.08619133 1.8858892 0.23270854 2.034457 0.02018301 -0.347004 0.4634417
1.1707982 2.6676888 -0.30526972 1.1138518 -1.327589 2.1192954 -0.65307575 1.5053158
1.6085842 2.9532244 2.0211897 -2.4475067 -1.0680978 -0.013390699 -0.96264523 0.5313643
-0.39126697 -1.0292032 0.83789617 1.8188441 0.012615007 1.8540857 3.223373 0.64815426
0.09991017 1.4904611 -0.082325265 1.145885 1.0115126 -1.1720005 -0.2499861 0.9036579
1.231533 0.6147629 -0.22845058 0.9655805 1.3021569 3.6006415 1.3998564 -1.5241188
0.8747438 2.664898 -0.3278398 1.394309 -0.69724613 -1.3504055 1.50228 1.168247
0.108797155 -0.05996893 -1.3618196 2.1204166 -1.8802134 0.3443423 0.6210214 -1.1115665
-2.6060588 -0.16014187 1.6849214 -1.4990344 0.2251653 2.1931982 1.6407398 0.502057
0.15083036 1.4008433 -0.5510518 0.9723168 0.7853132 -0.5299467 -1.9643596 0.36664745
-0.32104343 -1.9236888 -0.73497903 2.4445937 1.7544845 2.5274963 -1.6902833 0.6554149
2.0713112 -0.8121519 -1.6053666 0.7569322 -1.4778858 -0.16884905 3.3426526 3.5715315
2.3148527 0.025324283 1.5920495 1.191334 2.592434 0.60672337 -0.50441664 1.0508814
-0.23864585 -0.38241035 -2.251351 -0.778851 -0.81454146 -4.4804726 -0.6258879 2.5823557
-1.6094482 1.5051382 -1.1218779 2.4499779 -0.17115016 0.22923619 -1.0650195 -0.8891163
-0.045088697 -0.6540734 -1.5726005 0.5280276 0.28020105 2.26268 1.4615276 0.6345528
1.673314 -0.15861754 -1.2950438 -1.2306122 2.0258472 0.91544443 1.5031568 -0.31196168
0.4445743 0.9345051 0.59881085 -1.1237273 -0.42489868 0.25296485 0.010678617 1.227171
0.1716468 -1.3314527 -0.1325841 -0.78300256 -1.0994055 -0.23262627 -2.004953 -0.8436319
0.6656858 1.3163365 1.7220647 1.3631922 -0.16333753 2.0017521 -1.6184037 1.346013
0.13902406 0.004217078 -1.6335529 -2.7241411 -0.671714 -1.9758693 -0.11962866 2.3237782
0.4847892 1.8875198 -0.9738649 1.026845 0.16314733 0.4603629 0.39242578 -1.398172
0.062498007 -1.0628461 -1.1538607 -0.7627925 -0.31943953 -0.38073725 0.16740912 0.6076512
1.7816726 -0.0975965 1.5906374 0.5687303 -0.12902422 -1.1838802 0.75359815 -0.10647293
0.73327833 -1.2366965 1.1647872 2.3602686 -2.368809 0.34060755 -1.1261476 -2.1281614
-1.0833343 -0.16217402 -0.33086634 0.33817187 -0.16047466 0.68565714 1.6911577 -1.663942
1.0638138 0.27790022 -1.3666397 -2.1976218 0.12110112 2.1644819 0.9353166 1.0906016
1.081345 -2.222046 -2.3174975 -1.7332431 -0.3499535 -1.9507737 2.1503003 -0.19862579
1.6341646 0.4528124 2.387293 1.8712447 -0.30288947 -1.6495088 -0.5401474 -1.0939939
2.093873 0.12481189 0.3579243 1.1274654 -0.3571559 -0.8664748 -0.015579103 -0.63474584
00000000: 3aa6 a33e a4c0 543f 8b33 523f 3603 3e3f
00000010: cb6b 2a40 761a 0240 59b9 ea3f 0680 04bf
00000020: 7a2e c43e 17b0 413f 4b43 3c3f 0f1d e6bf
00000030: ca87 dabe f841 0ac0 c0e7 b63f a35f 7c3f
00000040: 37d9 8e3e 1485 b03d d164 f13f 264b 6e3e
00000050: 8b34 0240 d756 a53c 82aa b1be 3b48 ed3e
00000060: b7dc 953f 6abb 2a40 504c 9cbe b292 8e3f
00000070: 70ee a9bf 89a2 0740 f92f 27bf 30ae c03f
00000080: 16e6 cd3f a101 3d40 2c5b 0140 f3a3 1cc0
00000090: 6eb7 88bf aa64 5bbc eb6f 76bf 7e07 083f
000000a0: 2554 c8be eebc 83bf 5d80 563f e2cf e83f
000000b0: 2daf 4e3c ae52 ed3f be4b 4e40 70ed 253f
000000c0: b49d cc3d 6ec7 be3f 269a a8bd 5cac 923f
000000d0: 3f79 813f 1d04 96bf 5bfc 7fbe 2056 673f
000000e0: e0a2 9d3f 1a61 1d3f f3ee 69be 4930 773f
000000f0: 14ad a63f e970 6640 7f2e b33f 5316 c3bf
00000100: 36ef 5f3f b08d 2a40 9eda a7be b878 b23f
00000110: b97e 32bf 16da acbf b64a c03f 1e89 953f
00000120: 0bd1 de3d fba1 75bd 1b50 aebf e8b4 0740
00000130: d5aa f0bf a24d b03e 42fb 1e3f d047 8ebf
00000140: abc9 26c0 3bfc 23be 81ab d73f 5ce0 bfbf
00000150: bb91 663e 5c5d 0c40 c303 d23f cf86 003f
00000160: 4673 1a3e d54e b33f bb11 0dbf c1e9 783f
00000170: 490a 493f 96aa 07bf 2370 fbbf 37b9 bb3e
00000180: ce5f a4be 6f3b f6bf 9627 3cbf 3974 1c40
00000190: f392 e03f 80c2 2140 345b d8bf 45c9 273f
000001a0: 5d90 0440 30e9 4fbf a77c cdbf 4fc6 413f
000001b0: 5d2b bdbf c4e6 2cbe 05ee 5540 f993 6440
000001c0: 8c26 1440 df74 cf3c 47c8 cb3f a27d 983f
000001d0: 70ea 2540 3952 1b3f 7321 01bf 4883 863f
000001e0: 945f 74be 4acb c3be 2316 10c0 c762 47bf
000001f0: ca85 50bf 0860 8fc0 303a 20bf 5145 2540
00000200: 6602 cebf 5ea8 c03f b299 8fbf 70cc 1c40
00000210: fd41 2fbe e4bc 6a3e 8f52 88bf 209d 63bf
00000220: edae 38bd 5b71 27bf f94a c9bf d12c 073f
00000230: 8376 8f3e c0cf 1040 5613 bb3f 0d72 223f
00000240: 272f d63f a36c 22be ffc3 a5bf b384 9dbf
00000250: 7ba7 0140 915a 6a3f 7167 c03f 71b9 9fbe
00000260: 3e9f e33e ba3b 6f3f ab4b 193f 4cd6 8fbf
00000270: 528c d9be 9c84 813e 5ef5 2e3c f013 9d3f
00000280: 2ec4 2f3e 0b6d aabf 20c4 07be db72 48bf
00000290: 52b9 8cbf 9535 6ebe 2651 00c0 43f8 57bf
000002a0: 626a 2a3f b77d a83f 9e6c dc3f 157d ae3f
000002b0: f441 27be b51c 0040 da27 cfbf 274a ac3f
000002c0: 535c 0e3e 6a2f 8a3b 4318 d1bf 5458 2ec0
000002d0: 73f5 2bbf 49e9 fcbf dfff f4bd c8b8 1440
000002e0: 4a36 f83e 409a f13f 364f 79bf a86f 833f
000002f0: 1810 273e b0b4 eb3e 08ec c83e 4df7 b2bf
00000300: e9fd 7f3d 570b 88bf b5b1 93bf 5f46 43bf
00000310: 948d a3be feef c2be 4c6d 2b3e 078f 1b3f
00000320: d90d e43f ace0 c7bd 029a cb3f 4f98 113f
00000330: ed1e 04be 6389 97bf cfeb 403f 7b0e dabd
00000340: 21b8 3b3f 124c 9ebf bf17 953f a40e 1740
00000350: 919a 17c0 1d64 ae3e 9b25 90bf cc33 08c0
00000360: b3aa 8abf f210 26be 5067 a9be dd24 ad3e
00000370: 7853 24be 3a87 2f3f db77 d83f 0dfc d4bf
00000380: 0d2b 883f f048 8e3e 0dee aebf d6a5 0cc0
00000390: dd03 f83d df86 0a40 e970 6f3f d598 8b3f
000003a0: 8369 8a3f 0036 0ec0 e151 14c0 e9da ddbf
000003b0: 1b2d b3be f4b2 f9bf 859e 0940 8f64 4bbe
000003c0: 4e2c d13f 07d7 e73e 69c9 1840 f284 ef3f
000003d0: 5414 9bbe 1b23 d3bf 1a47 0abf fe07 8cbf
000003e0: 0402 0640 609d ff3d db41 b73e c950 903f
000003f0: 23dd b6be 4bd1 5dbf 7e3f 7fbc b47e 22bf

O2.1.weight f4 [70]
0.46045932 0.7059417 0.67609334 1.046074 0.26209888 0.46266174 0.9692434 0.8002929
1.2081625 0.6251951 0.81861 0.45577565 0.70265514 0.6555861 0.624149 0.8952315
0.5276757 0.80762005 1.0365961 0.75318927 0.5186096 0.318958 0.6882013 0.24697842
0.95532686 0.7202512 0.29044458 0.6503545 0.4084127 0.72929734 0.9705156 0.5707904
1.2205205 0.46818727 0.22870447 0.8894497 0.7836721 0.3976194 1.0354245 0.5125854
0.5934993 1.3366432 1.0252693 0.9671348 0.6598771 0.65843046 0.043044038 0.4857963
0.7682412 0.8043676 1.1487324 0.16079347 0.6140461 0.7847529 0.5898744 0.90600914
0.4292448 0.7805048 0.6392717 1.359487 0.66808635 0.8876538 0.52228266 0.58777255
0.48384675 0.67180014 0.30780092 1.2858809 1.3007233 0.47056824
00000000: 53c1 eb3e 98b8 343f 7414 2d3f c1e5 853f
00000010: d331 863e 00e2 ec3e 5620 783f ffdf 4c3f
00000020: 12a5 9a3f c90c 203f 6d90 513f 6d5b e93e
00000030: 35e1 333f 7ed4 273f 3bc8 1f3f e42d 653f
00000040: c115 073f 30c0 4e3f 2eaf 843f 03d1 403f
00000050: 99c3 043f 774e a33e f62d 303f e9e7 7c3e
00000060: 4d90 743f 6262 383f 27b5 943e a27d 263f
00000070: 781b d13e 3bb3 3a3f b673 783f 521f 123f
00000080: 043a 9c3f 3eb6 ef3e 8131 6a3e fab2 633f
00000090: bc9e 483f c594 cb3e ca88 843f cc38 033f
000000a0: 92ef 173f 2017 ab3f 063c 833f 2596 773f
000000b0: b5ed 283f e68e 283f f24e 303d 4bba f83e
000000c0: 75ab 443f 09eb 4d3f aa09 933f 0ba7 243e
000000d0: 2032 1d3f 91e5 483f 0202 173f 37f0 673f
000000e0: f9c5 db3e 2acf 473f 4fa7 233f ac03 ae3f
000000f0: b507 2b3f 483d 633f 51b4 053f 4378 163f
00000100: c3ba f73e 18fb 2b3f 1598 9d3e bf97 a43f
00000110: 1a7e a63f 52ee f03e

O2.1.bias f4 [70]
0.5642053 0.03661963 -0.017667983 -0.13924746 -0.6805876 -0.6630545 0.5770591 -0.2643149
0.30134887 1.7506287 -0.11758185 -0.060121603 1.8291663 0.07537129 0.085045226 0.5575729
0.18767679 1.6421359 -0.21852113 1.6371709 -0.47099513 -0.6708313 -0.1301584 -0.6093918
-0.1687911 -0.22216319 1.3543338 -0.51358235 1.6740122 -0.28522485 -0.050903857 0.8756681
0.3088784 0.14698814 -0.5525503 -0.37808794 1.2592524 1.4906855 -0.24886988 1.8156226
1.1533291 0.22011828 -0.18251827 0.19905585 0.68651366 0.050157283 -0.092394695 1.9279218
1.3138603 1.1073703 0.33710262 -0.37003458 -0.524962 0.63512015 -0.07740508 -0.5275434
2.1098695 -0.5023342 -0.44149113 0.45381755 -0.017521773 -0.0560705 0.90807146 1.7908237
1.4855577 -0.42274985 -0.008211261 -0.124059595 0.3120584 0.13669948
00000000: c26f 103f 77fe 153d 72bc 90bc e396 0ebe
00000010: fd3a 2ebf f1bd 29bf 25ba 133f 4854 87be
00000020: 664a 9a3e 9a14 e03f c1ce f0bd 1242 76bd
00000030: 1f22 ea3f 435c 9a3d 312c ae3d 19bd 0e3f
00000040: 582e 403e 8231 d23f 01c4 5fbe d18e d13f
00000050: 4626 f1be 9abb 2bbf 3e48 05be 1a01 1cbf
00000060: 93d7 2cbe bf7e 63be cf5a ad3f 227a 03bf
00000070: 0846 d63f fe08 92be 9080 50bd c92b 603f
00000080: 4f25 9e3e 0f84 163e f073 0dbf be94 c1be
00000090: 2f2f a13f c8ce be3f bfd7 7ebe 5266 e83f
000000a0: 4aa0 933f b066 613e 12e6 3abe 4cd5 4b3e
000000b0: 5cbf 2f3f b971 4d3d 6e39 bdbd 24c6 f63f
000000c0: 932c a83f 4fbe 8d3f b798 ac3e 2c75 bdbe
000000d0: e963 06bf 3c97 223f 8e86 9ebd 160d 07bf
000000e0: 1a08 0740 f998 00bf 200b e2be c65a e83e
000000f0: d289 8fbc 2eaa 65bd 5f77 683f b639 e53f
00000100: c126 be3f ab72 d8be 8688 06bc f512 febd
00000110: 1ec6 9f3e f3fa 0b3e

O2.1.running_mean f4 [70]
-178.18411 -182.04195 -161.62283 -160.13255 -160.50648 -164.2379 -176.08965 -176.12585
-177.87752 -192.60216 -195.64694 -163.58081 -195.33769 -159.35231 -157.92532 -158.82086
-174.47755 -185.73616 -167.52179 -201.11566 -166.0963 -156.27596 -163.54887 -145.00563
-197.13182 -173.928 -196.70976 -175.52245 -191.69937 -177.38579 -148.01698 -177.98073
-152.2397 -172.39418 -159.52155 -180.58484 -174.99168 -179.8685 -181.8833 -185.56827
-191.43695 -179.15265 -180.34792 -158.96428 -170.42212 -193.4309 -162.12254 -198.58047
-187.33775 -172.98561 -158.19344 -147.18855 -192.64737 -167.55359 -192.03204 -182.42065
-197.93726 -189.99744 -189.33879 -167.48418 -189.5903 -164.01112 -180.90945 -192.36401
-192.74811 -163.84792 -159.12648 -162.26144 -150.51323 -165.54903
00000000: 222f 32c3 bd0a 36c3 729f 21c3 ef21 20c3
00000010: a981 20c3 e73c 24c3 f316 30c3 3820 30c3
00000020: a5e0 31c3 279a 40c3 9ea5 43c3 b094 23c3
00000030: 7356 43c3 315a 1fc3 e2ec 1dc3 24d2 1ec3
00000040: 417a 2ec3 75bc 39c3 9485 27c3 9c1d 49c3
00000050: a718 26c3 a546 1cc3 838c 23c3 7101 11c3
00000060: bf21 45c3 91ed 2dc3 b3b5 44c3 bf85 2fc3
00000070: 0ab3 3fc3 c362 31c3 5904 14c3 11fb 31c3
00000080: 5d3d 18c3 e964 2cc3 8485 1fc3 b895 34c3
00000090: dffd 2ec3 56de 33c3 20e2 35c3 7a91 39c3
000000a0: dc6f 3fc3 1427 33c3 1159 34c3 dbf6 1ec3
000000b0: 106c 2ac3 4f6e 41c3 5f1f 22c3 9a94 46c3
000000c0: 7756 3bc3 51fc 2cc3 8531 1ec3 4530 13c3
000000d0: baa5 40c3 b88d 27c3 3408 40c3 b06b 36c3
000000e0: f0ef 45c3 58ff 3dc3 bb56 3dc3 f37b 27c3
000000f0: 1e97 3dc3 d902 24c3 d2e8 34c3 305d 40c3
00000100: 84bf 40c3 11d9 23c3 6120 1fc3 ee42 22c3
00000110: 6383 16c3 8d8c 25c3

O2.1.running_var f4 [70]
81.21802 75.64928 76.60904 49.893406 156.37521 14.631593 84.3262 37.47703
181.25665 120.138084 52.85476 67.76274 70.44442 55.476116 100.639 50.36953
33.459095 198.16234 47.16476 107.36682 100.14272 118.24679 90.33382 77.59817
82.31486 36.34893 25.878805 60.347034 204.98933 36.69323 98.477394 91.055725
34.586178 175.1182 99.04036 67.4411 67.73969 158.39839 85.0064 140.44566
44.2945 181.40628 95.4681 56.336216 148.2986 27.856024 67.0427 149.14085
221.86253 75.686165 127.03534 112.20914 57.638264 59.615757 84.83937 46.844254
73.78787 34.319717 22.482653 42.923428 136.01732 152.34222 59.75776 245.6783
82.51 9.8517885 105.506516 79.44242 102.683945 147.81552
00000000: a06f a242 6e4c 9742 d437 9942 d992 4742
00000010: 0e60 1c43 011b 6a41 04a7 a842 7be8 1542
00000020: b441 3543 b346 f042 466b 5342 8686 8742
00000030: 8be3 8c42 8be7 5d42 2b47 c942 667a 4942
00000040: 1dd6 0542 8f29 4643 b7a8 3c42 d0bb d642
00000050: 1349 c842 5b7e ec42 eaaa b442 4332 9b42
00000060: 35a1 a442 4e65 1142 cb07 cf41 5d63 7142
00000070: 45fd 4c43 dec5 1242 6df4 c442 881c b642
00000080: 3f58 0a42 421e 2f43 aa14 c642 d8e1 8642
00000090: b97a 8742 fd65 1e43 4703 aa42 1772 0c43
000000a0: 912d 3142 0268 3543 abef be42 4958 6142
000000b0: 714c 1443 23d9 de41 dd15 8642 0f24 1543
000000c0: cfdc 5d43 515f 9742 1812 fe42 146b e042
000000d0: 958d 6642 8976 6e42 c2ad a942 8460 3b42
000000e0: 6493 9342 6447 0942 79dc b341 97b1 2b42
000000f0: 6f04 0843 9c57 1843 f207 6f42 a5ad 7543
00000100: 1f05 a542 eda0 1d41 5603 d342 85e2 9e42
00000110: 2e5e cd42 c6d0 1343
